model/keypoint_classifier/keypoint_classifier.tflite (tflite, 6640 bytes, 6 tensors)

dense_2/bias f4 [9]
0	0x3f17688b	0.59143895
1	0x3f1c25e8	0.6099534
2	0xbe132219	-0.14368476
3	0x3ee41ba3	0.44552335
4	0xbe36404b	-0.17797963
5	0xbe27f6ee	-0.1640279
6	0xbe45e6c3	-0.1932631
7	0xbe3fd4f5	-0.1873358
8	0xbf181f71	-0.59422976

dense_1/bias f4 [10]
0	0xbbf1e4c4	-0.0073820073
1	0xbed39274	-0.41322672
2	0x3f74298b	0.9537589
3	0x3e7316a7	0.2373911
4	0x3f3125c1	0.6919823
5	0x3f0e60ec	0.5561664
6	0xbde13578	-0.109965265
7	0x3e0dbbca	0.13841167
8	0x3e391742	0.18075278
9	0x3ee52e77	0.44762012

dense/bias f4 [20]
0	0x3e7533e4	0.23945576
1	0x3e837ffb	0.2568358
2	0x3eb89792	0.3605314
3	0x3e6e5323	0.23273902
4	0xbeb5a4ea	-0.35477382
5	0xbe68be0d	-0.22728749
6	0xbeefc788	-0.46831918
7	0xbd503e33	-0.050840568
8	0x3db2fcb4	0.087396055
9	0xbd644c92	-0.055737086
10	0xbf09edc9	-0.53878456
11	0xbf15a149	-0.58449227
12	0x3ec2c117	0.3803794
13	0xbe6c1f83	-0.23058896
14	0xbdaea4b7	-0.085275106
15	0x3ea29eda	0.3176182
16	0xbf5ed3b0	-0.8704176
17	0xbee6c94c	-0.45075452
18	0xbf65273c	-0.8951299
19	0x3d80f518	0.06296748

sequential/dense/MatMul f4 [20, 42]
0	0x3df4a1cc	0.11944923
1	0x3de55858	0.11198491
2	0x3e1c4eec	0.15264481
3	0x3f19b0d7	0.6003546
4	0x3caa2d4e	0.020773556
5	0x3f018f84	0.5060961
6	0xbdf8afbc	-0.12142894
7	0x3ea8477c	0.32867038
8	0xbd15e693	-0.036596846
9	0x3e9fb52a	0.31192905
10	0x3dc39a34	0.09550896
11	0x3d6d5c5e	0.057949416
12	0x3e35d726	0.17757854
13	0xbe2075b5	-0.15669902
14	0x3d7bfa17	0.0615178
15	0xbf00a6b0	-0.50254345
16	0x3e139156	0.1441091
17	0xbf2d86d6	-0.6778387
18	0x3dbef162	0.09323384
19	0x3dbebb34	0.0931305
20	0x3d89a052	0.06720032
21	0x3def3fda	0.116821006
22	0x3da89365	0.08231238
23	0x3dbf4ce4	0.093408376
24	0x3db8a79b	0.09016343
25	0x3e9a6515	0.30155244
26	0x3dc07665	0.09397582
27	0x3c47cf3e	0.0121954065
28	0xbe15207a	-0.1456317
29	0x3c088994	0.008333582
30	0xbd8d879b	-0.0691063
31	0x3c56f737	0.013120464
32	0x3daa50e2	0.083162084
33	0x3ec8147c	0.39078128
34	0xbddb8dd0	-0.10720408
35	0xbe844875	-0.2583653
36	0x3d138208	0.03601268
37	0xbb8b89e0	-0.0042583793
38	0xbd607f0e	-0.05480867
39	0x3bca7ec1	0.006179661
40	0xbdb87f09	-0.09008605
41	0x3e3c9f93	0.18420248
42	0xbe46c786	-0.1941205
43	0xbe25735d	-0.16157289
44	0x3e79f6ac	0.24410504
45	0x3eb8fc26	0.36129874
46	0x3ed753a8	0.42056012
47	0x3d23f04b	0.040024083
48	0x3e99ca1b	0.30037007
49	0x3e90a578	0.28251243
50	0x3eff2c73	0.498386
51	0x3e8ede23	0.27903852
52	0x3e5706a4	0.20998627
53	0x3ea2e89d	0.31818095
54	0x3edf9529	0.43668488
55	0x3e82c5a2	0.25541407
56	0x3e9ed334	0.3102051
57	0x3cb98735	0.02264748
58	0x3dfede4c	0.124447435
59	0x3e45dd2a	0.19322649
60	0x3ed2ec67	0.41195986
61	0xbcb08c5f	-0.02155131
62	0x3e3f00b6	0.18652615
63	0x3d9bfa9b	0.076161586
64	0x3deb26ea	0.11482032
65	0x3ebd1a10	0.36933947
66	0x3ea6fa76	0.32612962
67	0x3ebb1f88	0.36547494
68	0x3ea9733f	0.33095738
69	0x3ed01114	0.4063803
70	0x3e8c3bc3	0.27389345
71	0x3f02321c	0.5085771
72	0x3e5d8621	0.21633197
73	0x3e463529	0.19356216
74	0xbce2f174	-0.027703024
75	0x3e5d1265	0.21589048
76	0xbeaa43ff	-0.33255002
77	0x3ef2ebc8	0.47445512
78	0xbe7b5747	-0.24545012
79	0x3e446c23	0.19181876
80	0xbe281e10	-0.16417718
81	0x3e288b8f	0.16459487
82	0xbee09110	-0.43860674
83	0x3e84ebe9	0.25961235
84	0x3e04c4b2	0.12965658
85	0xbe630492	-0.22169712
86	0x3f07b3d5	0.53008777
87	0xbd327216	-0.043565832
88	0x3dc23526	0.094827935
89	0xbe04e480	-0.12977791
90	0x3e1da138	0.15393531
91	0xbc8e7aa5	-0.017392466
92	0x3edc2d61	0.4300337
93	0xbd352fce	-0.044235043
94	0xbcc41c0b	-0.023939153
95	0x3d42e7af	0.047584232
96	0x3deb2f20	0.11483598
97	0x3bf1f004	0.0073833484
98	0x3c2613b5	0.010136534
99	0xbe21bb63	-0.15794139
100	0x3e1422e5	0.14466436
101	0xbf57d657	-0.8431143
102	0xbeaf23d3	-0.3420702
103	0x3e3d4211	0.18482234
104	0x3e12b68b	0.14327447
105	0x3d99c906	0.07509045
106	0x3dddd489	0.108315535
107	0x3d3ad26a	0.045610823
108	0xbe0b8074	-0.1362322
109	0x3d89fc0a	0.06737526
110	0xbf133666	-0.5750488
111	0x3e50e6be	0.20400521
112	0xbd62d0b0	-0.0553748
113	0x3de9f5e8	0.11423856
114	0xbd72024f	-0.059084233
115	0xbc9b6ac5	-0.01897181
116	0xbea384f2	-0.31937367
117	0x3e39b958	0.1813711
118	0xbdeae719	-0.1146986
119	0x3ee2a84b	0.44269022
120	0xbe8c3791	-0.27386144
121	0x3ea4461c	0.3208474
122	0xbe2934ae	-0.16524002
123	0x3e594b1d	0.2122006
124	0xbe679007	-0.22613536
125	0x3cb9c4c1	0.022676827
126	0xbe9e24f1	-0.3088756
127	0x3d81de68	0.06341249
128	0xbeb0b082	-0.34509665
129	0x3ecd79f2	0.401321
130	0xbeb25e21	-0.3483744
131	0x3e9e8179	0.30958155
132	0xbe8a2fb5	-0.26989523
133	0x3ecfc4bb	0.4057978
134	0xbd8c2a27	-0.068439774
135	0x3e971982	0.29511648
136	0xbdb42892	-0.08796801
137	0x3f17e858	0.59338903
138	0xbe775e33	-0.24157028
139	0x3e8c337b	0.27383026
140	0xbdffe053	-0.12493958
141	0x3eae8069	0.34082344
142	0x3dbd395b	0.09239455
143	0x3e7cc6c1	0.24685194
144	0x3e65952f	0.2242019
145	0x3ed45f00	0.4147873
146	0x3d8af837	0.067856245
147	0x3db77e00	0.089595795
148	0x3dc833ef	0.097755305
149	0xbd38ff68	-0.04516545
150	0x3e802a1f	0.25032136
151	0xbeb09dcb	-0.34495386
152	0x3e7a94db	0.24470846
153	0x3f13ea80	0.57779694
154	0x3cabdb29	0.020978527
155	0x3db62597	0.088938884
156	0x3ecfb623	0.40568647
157	0xbebc47dd	-0.36773577
158	0x3f0e856b	0.5567233
159	0xbe9ebab9	-0.31001833
160	0x3eb6f12e	0.3573088
161	0x3ebe052b	0.37113318
162	0xbdc7eba4	-0.09761742
163	0x3e849124	0.25891984
164	0x3e26e613	0.16298704
165	0xbed85f18	-0.4226005
166	0x3e714a68	0.2356354
167	0xbf036fec	-0.51342654
168	0x3e48c33c	0.19605726
169	0xbdf6160c	-0.12015924
170	0x3e669123	0.22516303
171	0xbf5db412	-0.8660289
172	0x3eb50e47	0.35362455
173	0xbf33d30b	-0.702439
174	0x3d9f7889	0.07786662
175	0xbee30d33	-0.44346008
176	0x3e4f37f0	0.20236182
177	0xbe8a7775	-0.27044263
178	0x3e4d9f6b	0.20080344
179	0xbedf1480	-0.43570328
180	0x3e1180d0	0.14209294
181	0xbe16d593	-0.1472991
182	0x3c35034d	0.01104815
183	0xbdc7133c	-0.097204655
184	0xbe5db539	-0.21651162
185	0xbdad80e3	-0.08471849
186	0x3df74882	0.12074377
187	0xbe2eb6d5	-0.17061932
188	0x3da61fa6	0.08111505
189	0x3dea98f2	0.11454953
190	0xbd04e11d	-0.032441247
191	0x3e88a70e	0.26689953
192	0x3dcb1bb9	0.09917397
193	0x3f262d34	0.64912724
194	0xbe8b4389	-0.27199963
195	0xbdbe4d1e	-0.09292053
196	0xbd9c830b	-0.07642182
197	0x3d82b755	0.06382624
198	0xbe43956a	-0.19099966
199	0x3eec4ce0	0.461524
200	0xbe921f67	-0.28539583
201	0x3f21993b	0.63124436
202	0xbe915949	-0.28388432
203	0xbd10ed68	-0.03538266
204	0x3e491ecb	0.19640653
205	0x3e92642c	0.2859205
206	0xbd7cc68d	-0.06171279
207	0x3ee84c38	0.4537065
208	0x3e2dbfb4	0.1696766
209	0x3f645c54	0.8920338
210	0xbe481e62	-0.1954284
211	0x3d9f685c	0.07783577
212	0x3eb85cc8	0.36008286
213	0xbf190009	-0.5976568
214	0x3ea3b656	0.3197505
215	0xbe6a4a1c	-0.22879833
216	0x3e905e89	0.28197125
217	0xbef0dd87	-0.47044012
218	0x3ebcd3a4	0.3688022
219	0xbe881557	-0.2657878
220	0xbdab2545	-0.08356718
221	0xbe6a1ba7	-0.22862111
222	0x3d8bd2ae	0.06827293
223	0xbe4669d0	-0.19376302
224	0xbdd2610f	-0.10272419
225	0xbe84c06d	-0.2592806
226	0x3db4724d	0.08810864
227	0xbe3c01b7	-0.18360029
228	0xbd99a5c3	-0.0750232
229	0xbe580600	-0.21096039
230	0xbda67860	-0.081284285
231	0xbc139b39	-0.009009176
232	0x3dc5a404	0.09650424
233	0x3ecb84ca	0.39749748
234	0xbe9f49e5	-0.31111065
235	0x3ef13922	0.471139
236	0xbe6d2a6f	-0.23160718
237	0x3e104c70	0.14091659
238	0xbe0014be	-0.12507913
239	0x3eb2a646	0.34892482
240	0xbd7eac17	-0.062175836
241	0x3e6692c5	0.22516926
242	0x3d6b84a6	0.05749955
243	0x3f271a3e	0.6527442
244	0xbe88a4cd	-0.26688233
245	0x3e47aa32	0.19498518
246	0x3d8a9bca	0.06767996
247	0x3eee0d10	0.4649434
248	0x3caf7110	0.021416217
249	0x3f06b5e6	0.52621305
250	0xbe087174	-0.13324529
251	0x3f40390f	0.75087065
252	0xbe6ca539	-0.23109902
253	0xbe682b1b	-0.22672693
254	0xbccf0f4c	-0.025275849
255	0xbef6d3b4	-0.48208392

sequential/dense_1/MatMul f4 [10, 20]
0	0x3e3b7f1c	0.18310207
1	0x3e72021d	0.23633619
2	0x3e6c568e	0.23079893
3	0x3f197f6c	0.59960055
4	0x3f0e368d	0.5555199
5	0x3ed5616f	0.41675898
6	0xbdf5c241	-0.119999416
7	0x3efdfb1a	0.49605638
8	0xbf0ee749	-0.55821663
9	0x3efe420a	0.4965976
10	0x3efa02a6	0.48830146
11	0xbe4740b4	-0.19458276
12	0x3d75d59f	0.060018178
13	0xbec3ed1e	-0.38266844
14	0x3eb92b25	0.3616573
15	0x3ebbe559	0.36698416
16	0xbea61ad9	-0.32442358
17	0xbf08ca4a	-0.5343367
18	0x3e687654	0.22701389
19	0x3e8cfaa8	0.27534986
20	0x3f195903	0.59901446
21	0x3d3b1701	0.045676235
22	0xbe9e8745	-0.30962577
23	0x3e0209ed	0.12699099
24	0x3f207ebc	0.6269338
25	0x3ed47449	0.4149497
26	0x3e877d5d	0.26462832
27	0x3e0da866	0.1383377
28	0x3e2333ba	0.15937701
29	0xbf207726	-0.62681806
30	0x3fa2c007	1.2714852
31	0x3ee9731a	0.45595628
32	0xbf48a7fc	-0.78381324
33	0x3f334606	0.7002872
34	0x3e14116d	0.14459772
35	0x3da573d1	0.08078731
36	0x3f8f54ca	1.119775
37	0x3f44acd7	0.7682623
38	0x3f7621ad	0.96145135
39	0x3e24420f	0.16040824
40	0x3f40eb80	0.75359344
41	0xbf038112	-0.5136882
42	0x3f2f09ce	0.68374336
43	0xbf0dc90f	-0.55384916
44	0xbdb5e73f	-0.08881997
45	0x3e818d95	0.2530333
46	0x3dc26977	0.09492772
47	0xbef8d3d4	-0.48599112
48	0x3f140f2c	0.5783565
49	0xbe8477fc	-0.2587279
50	0xbeb1f992	-0.3476072
51	0xbd7eb0ee	-0.062180452
52	0xbf04a6d5	-0.51817065
53	0x3edd867f	0.43266675
54	0xbdcf3227	-0.10116988
55	0xbf401fab	-0.7504832
56	0xbf0cb5c6	-0.54964864
57	0x3ee254cf	0.4420533
58	0xbea38bde	-0.31942648
59	0xbebeac8c	-0.37241018
60	0xbe21f6f7	-0.15816866
61	0x3e603751	0.21896102
62	0x3eb02de9	0.34410027
63	0x3cfa2b16	0.030538123
64	0x3f826c26	1.0189254
65	0x3f48bc4c	0.7841232
66	0xbcae823f	-0.02130234
67	0x3bbbba2f	0.005728982
68	0x3ca5c372	0.020234797
69	0x3e5915e7	0.21199761
70	0x3ef03c60	0.46921062
71	0x3e99a09c	0.30005348
72	0xbe48cba8	-0.19608939
73	0xbe85eacc	-0.26155698
74	0x3e055d73	0.1302393
75	0x3c55c408	0.013047226
76	0xbf2562fd	-0.6460417
77	0xbed6dd87	-0.41965887
78	0xbeb91725	-0.3615047
79	0x3e660607	0.22463237
80	0x3f2b8a6e	0.670081
81	0x3e25e347	0.1619998
82	0x3ec19a94	0.37813246
83	0x3f4b57ab	0.79430646
84	0xbe58a48d	-0.21156521
85	0xbed9095c	-0.42389953
86	0x3ee41594	0.44547713
87	0x3eea0dad	0.4571356
88	0x3e677eda	0.22606984
89	0xbecf989b	-0.40546116
90	0xbed860b4	-0.4226128
91	0xbeeb4011	-0.45947316
92	0x3ef17089	0.4715617
93	0x3ebd7979	0.3700674
94	0x3ebae97a	0.36506253
95	0x3f1d3b82	0.61418927
96	0xbd963e9f	-0.07336163
97	0x3f122d54	0.57100415
98	0xbdc392b3	-0.09549465
99	0x3f374187	0.7158436
100	0x3f3abd79	0.7294536
101	0x3f56ea7d	0.8395155
102	0x3ec029bd	0.37531844
103	0x3f45d56c	0.7727878
104	0xbe20fa20	-0.15720415
105	0x3f0e3a4b	0.555577
106	0x3d39956a	0.045308508
107	0x3e83c53a	0.2573641
108	0x3d0144f1	0.03155989
109	0x3da77670	0.08176887
110	0xbec8eaa7	-0.39241526
111	0xbeebff91	-0.4609342
112	0x3f45bac5	0.7723811
113	0x3d1f99d8	0.038965076
114	0x3f06d1dd	0.52663976
115	0x3f543e82	0.8290788
116	0xbeea177c	-0.45721042
117	0x3c7d568c	0.015462529
118	0xbe93711b	-0.2879723
119	0x3f1fd04c	0.6242721
120	0x3e131d36	0.14366612
121	0x3ea1f773	0.316341
122	0x3ee0ecf5	0.43930784
123	0xbf630ae9	-0.8868852
124	0x3e380338	0.17969978
125	0x3df2dbce	0.11858331
126	0xbec06f86	-0.37585086
127	0xbf23a0d5	-0.63917285
128	0xbdc10274	-0.09424296
129	0x3f24acfc	0.64326453
130	0xbf687052	-0.9079639
131	0xbecf9a80	-0.40547562
132	0x3f40d18a	0.7531973
133	0xbe569080	-0.2095356
134	0xbf050800	-0.5196533
135	0x3f2d97dc	0.67809844
136	0xbd245cc6	-0.04012754
137	0x3f0bd2a3	0.5461828
138	0x3e7af084	0.24505812
139	0xbf1485e8	-0.58016825
140	0x3ec26150	0.3796487
141	0xbec36bd2	-0.38168198
142	0x3e6d2b87	0.23161136
143	0x39812645	0.0002463331
144	0x3d6ab50c	0.057301566
145	0x3ee12b3d	0.439783
146	0xbe7df797	-0.2480148
147	0x3e74640a	0.23866287
148	0x3d0304b1	0.031986896
149	0x3c826ede	0.015922006
150	0x3e69a41f	0.22816513
151	0xbe6546c6	-0.22390279
152	0xbedf146c	-0.43570268
153	0xbe3e2288	-0.1856786
154	0xbefdf9aa	-0.4960454
155	0x3da1e3c5	0.07904772
156	0x3d5248f9	0.051339123
157	0x3e179080	0.14801216
158	0xbeabca04	-0.33552563
159	0xbd1fc34c	-0.03900461
160	0xbdf229c3	-0.11824372
161	0xbe761a6d	-0.24033518
162	0xbe179e4a	-0.14806476
163	0x3ce1d7c4	0.027568705
164	0x3e8b93e7	0.27261278
165	0x3dac356c	0.08408627
166	0x3e9fb2db	0.31191143
167	0xbf1f859c	-0.62313247
168	0x3f1a8038	0.60351896
169	0xbe904b4a	-0.2818244
170	0x3f3f64ac	0.7476299
171	0x3f459359	0.7717796
172	0xbe792328	-0.24329817
173	0x3e23959b	0.15975039
174	0xbf4deebd	-0.8044241
175	0xbde1c27d	-0.11023424
176	0x3f03d9ed	0.51504403
177	0x3e365609	0.17806257
178	0x3ea211c3	0.31654176
179	0xbe2a5fbd	-0.16638084
180	0xbf201821	-0.6253682
181	0xbe217a9d	-0.1576943
182	0x3f588d65	0.8459075
183	0xbe3b4c87	-0.18290912
184	0x3ea494f4	0.32144892
185	0x3ef192fe	0.4718246
186	0x3f5605d6	0.83602655
187	0x3c9b5abc	0.018964164
188	0xbd1ee7da	-0.03879533
189	0x3f1bfcd5	0.60932666
190	0xbd6fe143	-0.058564436
191	0x3f3d3c98	0.73920584
192	0x3e523813	0.20529203
193	0xbea735cf	-0.3265824
194	0xbd342369	-0.043979082
195	0xbee44764	-0.44585717
196	0xbdd013d9	-0.10160036
197	0xbf364f2e	-0.7121457
198	0xbf6132ec	-0.87968326
199	0x3c6cbfcd	0.014450026

sequential/dense_2/MatMul f4 [9, 10]
0	0xbf8b8c0d	-1.0902115
1	0x3a4170b3	0.0007379159
2	0x3f32dc4d	0.698674
3	0xbfa9b17b	-1.3257288
4	0x3f132284	0.5747454
5	0x3e8e96ac	0.2784933
6	0xbf00db72	-0.50334847
7	0xbdeb183c	-0.11479232
8	0xbe084129	-0.13306107
9	0xbe891762	-0.26775652
10	0x3eca5ddb	0.3952473
11	0xbfb4df3b	-1.4130625
12	0xbf6bde38	-0.92135954
13	0xbe391fb5	-0.18078502
14	0x3f30dcb1	0.6908675
15	0x3f33ce51	0.7023669
16	0xbf49bb91	-0.7880183
17	0xbf606278	-0.8765025
18	0xbf502ddc	-0.81319976
19	0xbee17e1e	-0.44041532
20	0x3eeabb50	0.45846033
21	0x3eada837	0.339174
22	0xbf321255	-0.6955922
23	0x3ec87cc2	0.39157683
24	0xbc1b3d6d	-0.009475094
25	0x3ea74b69	0.3267472
26	0x3f4e7ee9	0.806624
27	0xbe9a7bc4	-0.3017255
28	0xbf3e82b4	-0.7441819
29	0x3ecdf476	0.4022557
30	0xbf07b185	-0.5300525
31	0xbf0f831c	-0.5605943
32	0x3df2d7b1	0.11857546
33	0x3f34a87a	0.70569575
34	0xbee64215	-0.44972292
35	0xbef1b74e	-0.47210163
36	0xbed53766	-0.41643828
37	0x3e434dea	0.1907269
38	0x3ef3f5b7	0.47648403
39	0x3f5c45db	0.8604409
40	0xbf895db1	-1.0731717
41	0xbf35b204	-0.70974755
42	0xbf7318da	-0.94959795
43	0xbf6361a8	-0.88820887
44	0x3e342b5c	0.17594665
45	0x3e14c69a	0.14528885
46	0xbf118c9f	-0.56855196
47	0x3eb1e8db	0.34747967
48	0xbeea9644	-0.4581777
49	0xbeffa7da	-0.49932748
50	0xbdabbea8	-0.08385974
51	0x3f72346d	0.94611245
52	0xbe602ad9	-0.21891345
53	0xbf915c6f	-1.1356333
54	0x3d444caf	0.047924694
55	0xbf8d8b88	-1.1058207
56	0x3d56227a	0.052278973
57	0xbe354ccb	-0.17705075
58	0x3f67fa1b	0.90616006
59	0xbd56c757	-0.0524362
60	0xbf20c840	-0.6280556
61	0xbebb1ca7	-0.36545298
62	0xbf307d26	-0.6894096
63	0xbf07462e	-0.5284146
64	0x3dd32095	0.10308949
65	0xbf08342e	-0.5320462
66	0xbf32b4de	-0.6980723
67	0x3d8a2385	0.06745056
68	0xbce1e57e	-0.02757525
69	0xbeedc844	-0.46441853
70	0xbe968217	-0.29396126
71	0x3e78bcfb	0.2429084
72	0xbf48930c	-0.78349376
73	0xbf5fa092	-0.87354386
74	0xbf41ef71	-0.75755984
75	0xbde0ad2d	-0.10970531
76	0xbf49b72f	-0.7879514
77	0x3dc30e2e	0.09524189
78	0xbf1f3f78	-0.6220622
79	0x3d888a59	0.06667013
80	0x3f2bb471	0.67072207
81	0x3ea348f3	0.31891593
82	0xbf479641	-0.77963644
83	0x3f27d6dc	0.65562224
84	0x3de00618	0.10938662
85	0x3f098d0a	0.53730834
86	0xbf4d32e4	-0.8015578
87	0xbc7b93f0	-0.015355095
88	0xbebb2212	-0.3654943
89	0xbf6cd4d0	-0.92512226
