model/keypoint_classifier/keypoint_classifier.tflite (tflite, 6640 bytes, 6 tensors)

dense_2/bias f4 [9]
0.92778957 0.6168714 -0.012711852 -0.04324009 0.43665603 -0.3663578 -0.25719923 0.11155131
-0.97790205
00000000: 9e83 6d3f 49eb 1d3f 5f45 50bc 851c 31bd
00000010: 6191 df3e 4093 bbbe 9eaf 83be 0375 e43d
00000020: ca57 7abf

dense_1/bias f4 [10]
0.9185708 -0.05355963 0.8646108 0.62822074 -0.12045694 0.32192436 -0.6260487 0.9882075
0.47834966 -1.1114002
00000000: 7527 6b3f 5861 5bbd 2257 5d3f 13d3 203f
00000010: 21b2 f6bd 45d3 a43e ba44 20bf 2bfb 7c3f
00000020: 3fea f43e 5d42 8ebf

dense/bias f4 [20]
-0.011057516 -0.88535786 -0.6785908 0.18228327 -0.059877396 0.27240697 -0.5224313 0.22810008
-0.08210171 -0.71086794 -1.1402454 0.0906038 0.38834545 -0.49744412 -0.59774715 -0.5259424
-0.9231996 -0.5211286 0.7765225 -0.19796164
00000000: 952a 35bc d0a6 62bf 20b8 2dbf 77a8 3a3e
00000010: 0042 75bd ed78 8b3e 0fbe 05bf 1193 693e
00000020: f124 a8bd 71fb 35bf 90f3 91bf 7c8e b93d
00000030: 37d5 c63e ffb0 febe f505 19bf 29a4 06bf
00000040: cf56 6cbf af68 05bf 2eca 463f 75b6 4abe

sequential/dense/MatMul f4 [20, 42]
-0.021263301 0.15660709 -0.20631285 -1.1348369 0.039837204 -0.83136046 0.16899812 -0.92610985
0.27286094 -0.79301745 0.3153755 -0.5354537 -0.18228672 -0.19743578 -0.0432463 0.17117593
-0.093671896 0.20589717 0.24435143 -0.43265614 -0.122608535 -0.063772164 0.04663658 0.36463562
0.120509155 0.37333956 0.04168618 -0.3387571 -0.21585602 -0.063254476 -0.14770955 0.538622
-0.0579246 0.4665977 0.11477965 -0.4816476 -0.26944304 0.0139713045 -0.09901673 0.4058187
0.018270334 0.5454776 -0.1288983 -0.18370248 0.31829116 0.1772583 -0.04417339 0.20478667
-0.07854046 0.007459353 0.21957777 -0.036008123 -0.13102987 0.15538417 -0.020915482 0.10302096
0.017886532 -0.11926036 0.15838608 -0.1124479 -0.0061157583 -0.001075926 -0.11318714 -0.14014779
-0.09955406 -0.6553937 0.05359032 -0.93014956 -0.034085207 0.053599168 0.005885538 -0.29138678
-0.07040988 -1.0183221 0.10593216 -1.2051514 0.0060119224 0.011356829 -0.083694294 -0.20292687
-0.15009 -1.0426018 -0.18610159 -1.4172485 -0.3015564 -0.17882873 0.031721987 -0.38847584
0.06652068 -0.33238402 0.03701714 -0.2243684 0.0011935753 -0.34320372 -0.12923983 -0.5565445
-0.17735782 -0.013575028 -0.097901486 0.2858034 -0.034354195 0.30170548 0.18622826 -0.5592147
-0.17669334 -0.1518742 -0.053048898 0.13183142 0.08249953 0.13095458 -0.0075948876 -0.64568514
0.011413169 -0.053134557 -0.06137714 0.17450684 0.19763176 0.16160378 -0.036364835 -0.5214757
-0.15666938 -0.15424813 -0.15564479 0.20607188 0.13503188 0.1416149 0.0028478503 -0.15095714
0.19972433 -0.84864527 0.045917068 -0.5160583 0.45337096 -0.49216187 0.4707164 -0.54615223
0.11107317 0.34000683 -0.0055432264 0.100167654 0.09687192 0.12719126 -0.062934056 0.006296261
0.107779965 0.45852634 -0.11197147 0.3222583 -0.14243934 0.07766748 -0.037571583 -0.15636086
0.04254713 0.77688515 -0.016807811 0.29438812 -0.19832726 -0.11244501 -0.024854807 0.11717941
-0.0034368313 1.240681 -0.11718483 0.48749563 -0.11391174 0.31669095 0.046948303 0.14131351
0.21202761 -0.088836744 0.0068787136 1.024316 0.116691984 0.68491644 0.4062993 0.8548568
0.45170122 0.74231875 -0.20532602 0.21459071 0.09861095 0.2192766 0.008920533 0.16486813
-0.026381392 0.10332128 -0.85031414 0.08472835 -0.37417358 0.056237496 -0.26619583 0.07551061
-0.55453867 -0.009321881 -0.976582 0.078113034 -0.64000493 0.04188321 -0.63320976 0.031555492
-1.0300909 0.096305326 -0.57246894 0.13200313 -0.2659134 0.08775329 -0.5215907 0.17282653
-0.83916277 0.09627177 -0.22279051 0.022328228 0.28305796 -0.5465101 0.2672419 -0.535214
0.07925183 -0.46420506 0.18490452 -0.39094648 -0.15951428 0.17510284 -0.009964235 -0.13842453
0.07107257 -0.57044256 -0.077409975 -0.53879935 -0.08357554 0.23247609 0.055591222 0.17082609
-0.025107116 0.118068896 -0.30006078 0.3566198 0.09923096 0.3496967 0.03600438 0.17288843
0.042813905 0.28540388 -0.2070916 0.37207392 0.09382303 0.4967457 0.27857158 0.3278069
0.17263857 0.44865832 0.057684645 0.5043555 -0.110824674 -0.09551339 0.16187814 1.0758494
00000000: 6030 aebc 9c5d 203e ad43 53be 5642 91bf
00000010: 562c 233d 0ad4 54bf d80d 2d3e 8915 6dbf
00000020: 6eb4 8b3e 3103 4bbf e678 a13e 7e13 09bf
00000030: 5fa9 3abe 9b2c 4abe 0823 31bd be48 2f3e
00000040: 0dd7 bfbd b5d6 523e 4337 7a3e 1b85 ddbe
00000050: 2f1a fbbd fb9a 82bd 0006 3f3d 85b1 ba3e
00000060: 81cd f63d 5d26 bf3e 21bf 2a3d 9271 adbe
00000070: 5c09 5dbe 908b 81bd 2c41 17be 22e3 093f
00000080: 5842 6dbd e5e5 ee3e 9811 eb3d 849a f6be
00000090: 70f4 89be e6e7 643c 49c9 cabd 78c7 cf3e
000000a0: abab 953c 6ca4 0b3f eafd 03be 811c 3cbe
000000b0: 0ff7 a23e 3383 353e 28ef 34bd 99b3 513e
000000c0: d2d9 a0bd 976d f43b ffd8 603e 417d 13bd
000000d0: b22c 06be 071d 1f3e f256 abbc a7fc d23d
000000e0: c786 923c c73e f4bd f62f 223e 164b e6bd
000000f0: b366 c8bb 1606 8dba a9ce e7bd e782 0fbe
00000100: 00e3 cbbd e2c7 27bf 8681 5b3d 481e 6ebf
00000110: ee9c 0bbd cd8a 5b3d 79db c03b a630 95be
00000120: 0e33 90bd 6158 82bf f6f2 d83d 6742 9abf
00000130: a9ff c43b fe11 3a3c ea67 abbd 10cc 4fbe
00000140: 31b1 19be fa73 85bf 6a91 3ebe 6668 b5bf
00000150: 9a65 9abe e11e 37be eaee 013d 4ee6 c6be
00000160: ff3b 883d 3d2e aabe 499f 173d d4c0 65be
00000170: be71 9c3a 66b8 afbe 7257 04be b379 0ebf
00000180: 4a9d 35be cb69 5ebc 9380 c8bd d354 923e
00000190: fcb6 0cbd 2479 9a3e 9fb2 3e3e b228 0fbf
000001a0: 19ef 34be e984 1bbe cd49 59bd d1fe 063e
000001b0: 83f5 a83d f518 063e 89de f8bb 9f4b 25bf
000001c0: 4dfe 3a3c 9fa3 59bd 9966 7bbd ecb1 323e
000001d0: fb5f 4a3e 767b 253e 4bf3 14bd 6e7f 05bf
000001e0: f06d 20be 39f3 1dbe 5961 1fbe 8204 533e
000001f0: cc45 0a3e 7f03 113e 00a3 3a3b 8294 1abe
00000200: 8984 4c3e d140 59bf 8913 3c3d 661c 04bf
00000210: 3d20 e83e a4fc fbbe bd01 f13e a2d0 0bbf
00000220: 557a e33d 6015 ae3e f4a3 b5bb b324 cd3d
00000230: c964 c63d 6d3e 023e 92e3 80bd de50 ce3b
00000240: bebb dc3d f7c3 ea3e 4c51 e5bd 0aff a43e
00000250: 9edb 11be 2110 9f3d a9e4 19bd 101d 20be
00000260: e645 2e3d f2e1 463f 89b0 89bc 0aba 963e
00000270: 4d16 4bbe 9249 e6bd 4f9c cbbc c2fb ef3d
00000280: 763c 61bb a3ce 9e3f 9afe efbd 0799 f93e
00000290: 8f4a e9bd 5125 a23e dd4c 403d 7db4 103e
000002a0: c41d 593e 0af0 b5bd d566 e13b c91c 833f
000002b0: 35fc ee3d af56 2f3f 7606 d03e e5d7 5a3f
000002c0: 6245 e73e 9a08 3e3f fc40 52be abbd 5b3e
000002d0: 8af4 c93d 0c8a 603e 6d27 123c 31d3 283e
000002e0: ca1d d8bc 1b9a d33d 30ae 59bf 0f86 ad3d
000002f0: ae93 bfbe 4a59 663d d24a 88be 4fa5 9a3d
00000300: 3ff6 0dbf ceba 18bc 4701 7abf baf9 9f3d
00000310: 5dd7 23bf bb8d 2b3d 091a 22bf 5540 013d
00000320: 05da 83bf ba3b c53d 538d 12bf d42b 073e
00000330: cd25 88be ffb7 b33d f886 05bf 70f9 303e
00000340: 5fd3 56bf 222a c53d 3223 64be b0e9 b63c
00000350: f9ec 903e 16e8 0bbf eed3 883e c903 09bf
00000360: c94e a23d 49ac edbe 9c57 3d3e 232a c8be
00000370: b657 23be 294e 333e 0841 23bc 29bf 0dbe
00000380: 7f8e 913d 8608 12bf 1f89 9ebd c1ee 09bf
00000390: a729 abbd 360e 6e3e 9fb3 633d 09ed 2e3e
000003a0: 70ad cdbc 1bce f13d 91a1 99be df96 b63e
000003b0: 9a39 cb3d 720b b33e 5479 133d aa09 313e
000003c0: a25d 2f3d 7520 923e d20f 54be 7980 be3e
000003d0: 4a26 c03d 7455 fe3e efa0 8e3e 4ed6 a73e
000003e0: 2ac8 303e 8bb6 e53e bc46 6c3d 711d 013f
000003f0: 0cf8 e2bd 869c c3bd 62c3 253e 6fb5 893f

sequential/dense_1/MatMul f4 [10, 20]
0.34661123 0.27612334 -0.59635806 0.36705512 0.40673155 0.4085623 -0.18902454 0.82797855
-0.08671389 0.09394358 -1.0085584 -0.1327679 1.0794835 0.0024403287 0.42778286 -0.27304354
0.26201168 0.69211257 0.013712737 -0.13509613 0.68213314 0.19243202 -0.308242 0.49555856
-0.0032973485 0.69552964 0.014231123 0.97787166 0.76141596 0.021665799 1.1843785 0.18936995
-0.20525508 0.2611941 0.2662763 0.78205043 0.24687372 0.3380695 -0.027123706 -0.1567394
-0.119337246 -0.9807483 0.12576811 -0.27092093 0.16545464 -0.3696799 0.99707806 -0.19774516
-0.4709171 0.22948353 0.3601297 -0.68672407 1.0429883 -0.0816244 -0.24440007 0.18981983
0.29869026 -0.19564426 0.24870886 0.38846675 0.03389378 -0.022547508 0.123624444 0.8357533
-0.12545863 0.3042242 -0.7167509 0.55008334 -0.07106496 -0.08223921 0.38133085 0.771681
-0.47370583 -0.05104329 0.06896357 -0.6237201 0.03707116 0.240738 -0.2186708 0.22041787
0.22877488 -1.3494755 0.10797329 0.8563982 0.8073135 0.45858547 0.86105645 0.3663817
0.53994536 -0.085627146 0.24568357 0.64136195 0.5531574 0.7321168 0.7581046 -0.62987316
-0.42772898 0.51423204 0.69278234 0.417086 0.09953679 -0.073789135 0.03970766 0.083750196
-0.10570402 0.09832306 0.65404594 -0.043319024 -0.03583485 -0.32559526 0.3463444 0.36166048
0.43370798 0.03730674 0.16836725 1.0631635 -0.3806138 0.06256274 0.7216719 0.16032764
0.6161166 0.03579746 -0.4031203 0.0033498867 0.9363251 -0.15071741 -0.30460715 -0.1546797
-0.213883 -0.05703549 0.27413243 -0.18077655 0.4411056 -0.87881017 -0.33904657 -0.11203998
0.019470474 -0.14393964 -0.1526617 -1.5683694 0.046153627 0.19441162 0.42552096 -1.0176189
-0.57392657 -0.105960615 -0.5038542 -0.08970569 0.18577613 0.92869705 0.20013659 -0.6220547
0.11982356 -0.034145765 -0.3003582 0.31700942 0.6838876 -0.5069416 -0.4276257 -0.88770723
0.8516853 -0.08497625 1.4814832 0.06896534 0.066962995 0.49022263 0.096124984 0.29108348
0.97422874 0.43988624 0.31461236 0.14989918 -0.936102 -0.2890776 -0.49119928 -0.05241771
0.20661466 -0.7416228 -0.51720124 0.19239458 0.5454924 0.965603 0.62619454 0.07896378
0.12533827 0.062037703 0.6020849 -0.022691425 0.6741238 0.5176396 0.5178436 0.07541863
0.05755832 0.17727198 0.27060798 1.0235586 0.66491103 0.1828932 0.03311603 0.07439334
00000000: 0777 b13e 0a60 8d3e ecaa 18bf a6ee bb3e
00000010: 1e3f d03e 142f d13e a68f 41be 67f6 533f
00000020: 0d97 b1bd 7e65 c03d 7118 81bf 4ff4 07be
00000030: 842c 8a3f eced 1f3b 5b06 db3e 5dcc 8bbe
00000040: 6526 863e 4a2e 313f 63ab 603c a456 0abe
00000050: 47a0 2e3f e60c 453e e5d1 9dbe dab9 fd3e
00000060: 5418 58bb 3b0e 323f a829 693c cc55 7a3f
00000070: 28ec 423f 797c b13c b799 973f 32ea 413e
00000080: 632e 52be 3cbb 853e 5e55 883e 7534 483f
00000090: 77cc 7c3e 7217 ad3e 8932 debc 4b80 20be
000000a0: 1667 f4bd 5212 7bbf 5bc9 003e 26b6 8abe
000000b0: f16c 293e af46 bdbe 8240 7f3f b57d 4abe
000000c0: 0c1c f1be bbfd 6a3e ec62 b83e 26cd 2fbf
000000d0: a480 853f b22a a7bd 0344 7abe 2160 423e
000000e0: eeed 983e f856 48be 89ad 7e3e 1de5 c63e
000000f0: 34d4 0a3d 8db5 b8bc d02e fd3d eef3 553f
00000100: 3a78 00be 46c3 9b3e fd7c 37bf 43d2 0c3f
00000110: 818a 91bd 086d a8bd cc3d c33e e38c 453f
00000120: 9289 f2be c512 51bd c63c 8d3d 1fac 1fbf
00000130: eed7 173d 0684 763e 3deb 5fbe 39b5 613e
00000140: f643 6a3e 9dbb acbf 1a21 dd3d ea3c 5b3f
00000150: 19ac 4e3f b7cb ea3e 326e 5c3f 6296 bb3e
00000160: dc39 0a3f 495d afbd 7994 7b3e 4c30 243f
00000170: b99b 0d3f 026c 3b3f 2513 423f 5e3f 21bf
00000180: 4bff dabe b6a4 033f 2f5a 313f 4c8c d53e
00000190: f2d9 cb3d c21e 97bd 80a4 223d 3985 ab3d
000001a0: 597b d8bd 9a5d c93d 8e6f 273f 4a6f 31bd
000001b0: 90c7 12bd 6cb4 a6be 0e54 b13e 902b b93e
000001c0: f90e de3e f4ce 183d 7768 2c3e be15 883f
000001d0: d0df c2be e520 803d 7dbf 383f ee2c 243e
000001e0: d1b9 1d3f 5ba0 123d c965 cebe c689 5b3b
000001f0: 00b3 6f3f aa55 1abe 78f5 9bbe 5b64 1ebe
00000200: 2504 5bbe 0c9e 69bd 165b 8c3e 7d1d 39be
00000210: 98d8 e13e b4f9 60bf 8397 adbe 3875 e5bd
00000220: 8b80 9f3c ea64 13be 5953 1cbe 54c0 c8bf
00000230: 960b 3d3d d713 473e e2dd d93e 5641 82bf
00000240: daec 12bf e101 d9bd 97fc 00bf 9eb7 b7bd
00000250: 193c 3e3e 17bf 6d3f 9bf0 4c3e fa3e 1fbf
00000260: 0e66 f53d 6edc 0bbd 8dc8 99be 0f4f a23e
00000270: 4213 2f3f edc6 01bf c1f1 dabe c840 63bf
00000280: 0c08 5a3f 0708 aebd 3ea1 bd3f b33d 8d3d
00000290: e523 893d 76fe fa3e 2ddd c43d e508 953e
000002a0: 0e67 793f c538 e13e df14 a13e 2c7f 193e
000002b0: 61a4 6fbf fb01 94be 797e fbbe f4b3 56bd
000002c0: cb92 533e feda 3dbf 4d67 04bf 1603 453e
000002d0: 64a5 0b3f c231 773f 494e 203f c3b7 a13d
000002e0: ad58 003e 3f1b 7e3d 3c22 1a3f 5ee3 b9bc
000002f0: 6193 2c3f 0784 043f 6691 043f 1575 9a3d
00000300: 46c2 6b3d c986 353e 218d 8a3e f803 833f
00000310: 9c37 2a3f 5b48 3b3e ada4 073d 895b 983d

sequential/dense_2/MatMul f4 [9, 10]
0.6329469 0.22114415 -1.662804 -0.08756207 -1.2708938 -1.3403851 -1.3631424 0.43024734
0.5437814 -0.51145834 0.7263316 -0.76887083 -0.25510928 0.07448278 0.7380185 -0.024768434
-0.9901332 -1.8144749 -1.3574446 -1.4675788 -0.072628066 0.75797904 -0.62832034 -0.09677864
0.24312246 0.35098627 0.11021126 -1.4074454 -1.0018666 0.5043197 -0.41813946 0.39559865
-0.37834388 0.7510425 -0.16429491 -0.7532813 0.20766419 -0.98193824 0.49632642 -0.44137394
-0.54867744 -1.0403776 1.2550302 -0.22878172 -0.29415128 0.67530864 0.8551643 -0.63450783
-0.9005099 -0.17861816 -0.77143013 -0.023769436 -0.29646766 -0.104008466 -0.49778366 -0.13746499
0.4979697 0.39641073 0.38513947 0.53073955 -0.101636454 -0.39410627 0.5001819 -0.85269445
0.5637572 -0.5279801 -0.49404883 0.01623322 0.27571496 0.85786474 0.44963703 -0.44548628
0.3953136 -0.5807181 -0.97893894 0.27921584 -0.80227244 0.6361976 -1.101956 0.44456396
0.37135085 0.3570841 0.17318298 -0.22392868 0.5115055 0.0028317184 -0.4742833 -0.0098796515
-0.5239253 0.40708804
00000000: cf08 223f 9d73 623e c3d6 d4bf be53 b3bd
00000010: a6ac a2bf bd91 abbf 737b aebf 6149 dc3e
00000020: 4235 0b3f efee 02bf def0 393f b8d4 44bf
00000030: af9d 82be 6e8a 983d c8ee 3c3f 2ce7 cabc
00000040: 5f79 7dbf b740 e8bf bfc0 adbf 9fd9 bbbf
00000050: 06be 94bd ea0a 423f 9ad9 20bf e133 c6bd
00000060: 18f5 783e 79b4 b33e 71b6 e13d 2c27 b4bf
00000070: 2a3d 80bf 191b 013f 6016 d6be e88b ca3e
00000080: 4ab6 c1be 5244 403f ed3c 28be 0bd7 40bf
00000090: eca5 543e 4e60 7bbf 7f1e fe3e c4fb e1be
000000a0: 2076 0cbf 182b 85bf d4a4 a03f c145 6abe
000000b0: ff9a 96be 07e1 2c3f 0cec 5a3f 1b6f 22bf
000000c0: d187 66bf aee7 36be 727c 45bf 1fb8 c2bc
000000d0: 9cca 97be 6402 d5bd 80dd febe 9fc3 0cbe
000000e0: e2f5 fe3e 59f6 ca3e 0031 c53e 8cde 073f
000000f0: c626 d0bd 4cc8 c9be ec0b 003f 2f4a 5abf
00000100: 6452 103f b429 07bf f8f3 fcbe 88fb 843c
00000110: 832a 8d3e 069d 5b3f d336 e63e c716 e4be
00000120: 8b66 ca3e f1a9 14bf be9b 7abf 61f5 8e3e
00000130: ba61 4dbf d9dd 223f e50c 8dbf e39d e33e
00000140: b321 be3e bad3 b63e e156 313e 8f4d 65be
00000150: 06f2 023f 5a94 393b 43d5 f2be 43de 21bc
00000160: f81f 06bf d86d d03e
