model/keypoint_classifier/keypoint_classifier.tflite (tflite, 6592 bytes, 6 tensors)

dense_2/bias f4 [8]
00000000: 5bda 1d3f 70e5 0a3e b6a9 64be 4e12 ad3d
00000010: 946c a7be 112b 54be 002c 42be a7c5 6f3e
0.6166131 0.13564086 -0.22330365 0.08450757 -0.32700026 -0.20719554 -0.18962097 0.23415242

dense_1/bias f4 [10]
00000000: 95c0 b43e 00e5 163f fa1e b7be 08c8 9bbc
00000010: 1945 13bd 8a9e a03e a8fd c03e 7205 153e
00000020: ae7c 763e b8e0 1bbe
0.35303178 0.58943176 -0.3576582 -0.01901628 -0.03595457 0.31370956 0.37693524 0.14552858
0.24070999 -0.15222442

dense/bias f4 [20]
00000000: eccc f83e 56da 6b3e 40c8 423e ab84 dcbe
00000010: 3a95 a73e c50a 993e 02d9 ebbe 6015 893e
00000020: 50bd 2b3e 66b3 eebe f62e d3be a72c e7be
00000030: 6ee9 a8bd 9428 b0be f6f9 67bd 7ba4 ad3d
00000040: b88e 0fbe 7201 16bd 0791 17bd de80 333e
0.48593843 0.23032507 0.19021702 -0.43069968 0.32731038 0.2989103 -0.46064 0.2677412
0.16771436 -0.46621245 -0.41246766 -0.45151255 -0.08247648 -0.3440596 -0.056634866 0.08478638
-0.14019287 -0.036622472 -0.037003543 0.17529628

sequential/dense/MatMul f4 [20, 42]
00000000: 7421 423e 8067 3dbe a1f6 323e 9364 fdbe
00000010: 75f4 f43c 1371 0dbf ef29 5dbc 6128 71be
00000020: 61e9 c33e 5487 06bf a201 673e 9b1d ce3d
00000030: b829 e23e 6604 31be 2aca ad3e 9afe 17be
00000040: 1704 933e e901 8fbe 3b32 bd3e 4ae7 2ebd
00000050: fc0b a23d 2841 143e 6d2f 80be 49a6 1f3e
00000060: 9ecd 48be fe5b 753e d598 5d3d 7b0f 573e
00000070: f59e 0dbe 0acf 9e3d 4987 e5be c735 2b3e
00000080: 74ba 2dbe 4be6 9e3e 68d9 f0bd fea2 c43e
00000090: 2ef3 02bd 0567 8c3e 8bc2 c2be a89a 973e
000000a0: 5c1a 17be b82b 8a3e 028c 99be dc5c 453e
000000b0: dcce 77be a8c0 5f3f 4b08 fe3b cc4f 9b3e
000000c0: f67f 9f3d f76c 7a3e de46 183e c9d3 6e3e
000000d0: 03ac 37bd 6da8 0a3d 177e 873e 231a 88be
000000e0: 021f 093f cedd 65be 811b f73e 277d 08bf
000000f0: e01a bdbd 4cb5 f7bd c9df bdbc 8c6a 3f3e
00000100: ab5c 01be b433 183e 59e0 2fbd 6747 573e
00000110: b376 0dbe e4c4 41be ccfa 3cbe eb9c d03d
00000120: 88fc 0abe 3997 6f3e bb58 71be 5612 1e3e
00000130: 1239 febc e6e5 9dbe c41b 88be 38d8 3dbe
00000140: c9a8 22be 2ba0 813e f854 b4be 993e b53d
00000150: 156a 86be df51 0ebe 7386 a93c df8c 6c3e
00000160: 7048 343e 5e21 c73e 1536 723e a3fd dd3d
00000170: 0903 b23e e838 363e 54e1 c9be 28f3 b83d
00000180: ed1a 61be 2412 7a3e ae43 7abe d6e5 ac3e
00000190: 0db7 acbe 4085 563e 2842 1abf f95d da3d
000001a0: ea86 02be 8564 c63e ddae 86be 496c a43d
000001b0: 05c3 8bbd 1f23 febc c43a 15bf 6d22 f13e
000001c0: f9d6 26be 5a48 903d c613 f6be 3bf9 923d
000001d0: 8f5d e7be e5cf 68be 9fd5 c5be 985a e1bd
000001e0: 3675 24be ab01 163d 9acb e1be 8725 61be
000001f0: 5af0 74bd 7c54 a4be d858 87be 66be 183e
00000200: 6f86 263e f28b 393e 4887 b23d 4d09 8b3e
00000210: 0daa 74bd 6825 973e b4b0 76be 00fb 693e
00000220: 18b0 253e a593 9bbe 64f7 823d b3ee 5cbc
00000230: 015b 0e3c e3e7 16be 3f61 bebc f880 1a3d
00000240: 9576 843e 73fd 5bbe 1863 5a3e 62e7 90be
00000250: 92c4 64bd f734 093d 569a 85be 380c db3e
00000260: d95d 453e 8df7 f5be 4d64 753e de60 be3c
00000270: 6e26 d43c 0d12 573e 514c 92be 1ca7 0a3f
00000280: 49a2 473e a090 babe 3610 cd3d f1cc d33d
00000290: d8c6 db3c 1949 29bd c15b 51be edee 1e3f
000002a0: ef5e 04be 1c8e fcbd 9d62 f43e 0a85 36be
000002b0: 64aa e83e f5e0 3f3e ef12 aa3e 2625 4f3e
000002c0: a485 413f 05bd 193e 14ed 7b3d 50ff 903d
000002d0: cb1b a83e 4a56 98bd e818 3c3f f206 a0be
000002e0: fa68 1d3f 3bc6 41be f31a 4fbe 9aee 883d
000002f0: 3a7b a53e 8396 5fbe 1205 9f3d 3187 04be
00000300: b01f 94be 0407 0ebd 29e1 0cbe d68a 86be
00000310: ad3f 99bc 0c48 e8bc 9994 63be 32e7 03be
00000320: 6e61 b3be c2d8 773d 2e8d a93c 73c5 42be
00000330: f73b aabd 84b4 64be f622 0fbe 7a94 3ebc
00000340: c619 5bbe 6896 76bc 9058 f1bc aa04 8fbe
00000350: 5968 963e f4c4 363f 432b 1f3e b496 7f3e
00000360: 0452 a53e 7533 013f 8228 2e3e ea2f 183f
00000370: 3181 47be ae5f 0bbe 0615 2fbe 7ee7 b33b
00000380: 6f95 22be 4027 3d3e f604 193e d25a b73e
00000390: 0654 29bd 6fe9 c6be c535 2e3e 3b69 3a3e
000003a0: 45b6 02be 83d2 0d3e ea2c 8ebe 366a 283f
000003b0: f3c4 9ebe 8376 1cbf 9e52 0fbe 43be 7abe
000003c0: a799 1e3e d4fd 043f f1c3 63be 6a9b 6c3e
000003d0: 43ec d23d 0bd7 0bbf 926f 40be 82ad 96bd
000003e0: 84e8 c7bd 1003 b9bd 92fb e2be fd82 013f
000003f0: a862 d33d e90b 9ebe a43a 593d f58b 7cba
0.18958074 -0.18496513 0.17476894 -0.49490795 0.029901722 -0.5525066 -0.013498767 -0.2355056
0.3826399 -0.52550244 0.22559217 0.100642405 0.44172454 -0.17286834 0.339433 -0.14843217
0.28714058 -0.27931145 0.36952385 -0.042701043 0.07912442 0.1447798 -0.25036183 0.15590777
-0.19609687 0.23960873 0.05410083 0.21001999 -0.13830169 0.07754333 -0.44829777 0.16719733
-0.16965657 0.31035075 -0.11760217 0.38405603 -0.031970195 0.27422348 -0.3803905 0.2961018
-0.14756149 0.2698648 -0.2998963 0.19273704 -0.24200004 0.87403345 0.0077524534 0.30334318
0.077880785 0.2445563 0.14870784 0.23322977 -0.044841778 0.03385203 0.26463386 -0.2658244
0.5356294 -0.22447893 0.4826317 -0.5331597 -0.092336416 -0.120951265 -0.023177998 0.18692988
-0.12633006 0.14863473 -0.042938564 0.21023332 -0.13814811 -0.18922764 -0.18455046 0.1018618
-0.13572896 0.2339753 -0.23569004 0.15436682 -0.031033073 -0.3083946 -0.26583683 -0.18539512
-0.15884699 0.2531751 -0.35221076 0.0884983 -0.2625281 -0.13898419 0.020693993 0.23100613
0.17605758 0.38892645 0.23653443 0.10839393 0.3476794 0.17795146 -0.39429724 0.090307534
-0.21982928 0.24420983 -0.2443988 0.337691 -0.33733407 0.20949268 -0.60257196 0.10662455
-0.12746778 0.38748565 -0.26305285 0.08028466 -0.068243064 -0.031022606 -0.58292794 0.47096577
-0.16292943 0.0704505 -0.4806196 0.07176443 -0.45188567 -0.22735555 -0.38639542 -0.110036075
-0.16060337 0.036622684 -0.44100648 -0.21986972 -0.05979953 -0.32095706 -0.2643497 0.14916381
0.1626222 0.18119791 0.08717209 0.27155533 -0.059732486 0.29520726 -0.24090844 0.22849655
0.16180456 -0.3038608 0.06394842 -0.013484645 0.008688689 -0.14736895 -0.02323973 0.03772065
0.2587172 -0.21483402 0.21326864 -0.2830153 -0.055851527 0.033497777 -0.2609431 0.4278276
0.19274081 -0.4804043 0.23964043 0.02323955 0.025897231 0.2100298 -0.2857385 0.5416124
0.194955 -0.36438465 0.100128576 0.10341824 0.026828215 -0.041329477 -0.20445158 0.6208332
-0.1292684 -0.12331793 0.47731486 -0.17824188 0.45442498 0.18738158 0.3321757 0.20229015
0.75594544 0.15013511 0.061505392 0.07079947 0.32833704 -0.07438333 0.73475504 -0.312553
0.61488307 -0.18923275 -0.20225124 0.06686135 0.32320577 -0.2183476 0.07764639 -0.12942196
-0.28930426 -0.03467466 -0.13757767 -0.26277798 -0.01870712 -0.028354667 -0.22224654 -0.12881163
-0.3503527 0.06050945 0.020697203 -0.19020633 -0.08312219 -0.22334486 -0.1397818 -0.011632079
-0.2139655 -0.015050508 -0.029461175 -0.27933246 0.29376486 0.71394277 0.15543847 0.24959832
0.32289135 0.5046914 0.1700764 0.5944811 -0.19482876 -0.13610718 -0.17097864 0.0054902425
-0.15877317 0.18472004 0.14943299 0.35811478 -0.041339897 -0.3884997 0.17012699 0.18204205
-0.12764843 0.13849835 -0.27768642 0.65787065 -0.31009635 -0.61118335 -0.1399636 -0.24486642
0.15488301 0.5194981 -0.22242714 0.23106161 0.102989696 -0.54625005 -0.1879256 -0.07357313
-0.09761146 -0.09033787 -0.44332558 0.505905 0.103215516 -0.30868462 0.05303444 -0.00096338923

sequential/dense_1/MatMul f4 [10, 20]
00000000: 22d2 8c3e 84c9 433d 4656 e0be 36f5 0d3f
00000010: dd02 793e d2cd 47bd 40e8 f93e 58f9 103e
00000020: 8b10 0b3f 11cf 3d3f df51 813d d750 953f
00000030: 7d87 4e3f 5ef5 373f 6db4 3cbb 57cf 723f
00000040: cd9e 5bbe c8a7 4bbd bf2b 86be 84ed 2e3e
00000050: b2de 5c3f 95ae 5a3f 5b9c e53e f555 1bbe
00000060: a385 063f 2c45 f93d 4c19 f6bc 67bd b1be
00000070: bd12 413f eb8a 8f3c 5a0a 09bf 7528 ddbd
00000080: 57e2 1cbc 7707 3cbd 163f 17be bd77 913e
00000090: ec5c 493f 5317 fbbe 103b ffbe 1dbf a4be
000000a0: d465 3bbe fb80 a23e 2675 ca3e 3113 7a3e
000000b0: 62c8 89be d0d6 f53e 4364 b2bc fd09 95be
000000c0: 3449 72be ce53 713d 3e8d d73e 1767 4c3f
000000d0: 8a4b ccbe 26cf c03c 76cf e03e 3cdf 2a3f
000000e0: 92b7 1d3f 0bcb 14bf 0c95 743d 43ad 68be
000000f0: 8259 bbbe b380 d7be af4a 7f3e 64ae eebd
00000100: 1778 11bf 6cb1 883d fead 9f3e c49f a53e
00000110: 14d3 afbe 62b1 833e 5e4e 233f 2fb3 97be
00000120: bfa7 9bbe 0937 f83e 5625 9b3e 2d65 05be
00000130: a4be 92bd 0c1e 913f 2dc7 56bf 9931 a3be
00000140: 9af8 a6be e0de ecbe 0439 8b3e 907e 5c3f
00000150: 2b94 423f 527f 993e aa21 c03e 6923 2e3e
00000160: 43cd 99bd 250f 013f a217 b73e a7be 143e
00000170: aaeb 4abe 054f 0e3f 1609 96bd a7e2 e43d
00000180: 50d5 e0bd bbf2 3c3d 099d b8bd cc95 08bd
00000190: 0512 053d 73eb c6bc 37ba 273f 2f5b b23e
000001a0: be08 fabe 414d d33e 946f 94be 5b03 1f3f
000001b0: 011a e0bd 542a 83be 3676 6cbe a883 963e
000001c0: 7d41 b73e c327 e3be b650 1a3f bc39 2fbe
000001d0: a91b 9cbe ec50 723e c792 f73e c8d1 283f
000001e0: c554 3e3e c4a7 07be 809b 043f 1851 e0be
000001f0: 52f6 683e fa8c 1f3f b449 99be 341f 9e3e
00000200: 6839 4d3d 6874 d53d ce48 ee3d fd0e 03be
00000210: f8ed a2be 7d10 e3be 457c eb3e 01fc a4be
00000220: b145 3c3f cd3b 843e e7c0 d6bd b653 143e
00000230: 0f3a f63e be64 56bf a809 113e f2a8 f5be
00000240: ebeb 9ebe 76a2 4fbf f697 0abd 598e 173e
00000250: 0999 113f e844 5ebc 9b41 243f 8fe4 053f
00000260: f4dd 2a3f 7827 71bd 0d54 cbbe 5ce3 e6be
00000270: 0778 9cbe 08e2 92be 64c2 e7be 408c 363e
00000280: 43e4 aa3e 4355 80be d47e 443e de08 3e3f
00000290: b4a0 043e 87d3 ae3e 55a9 27bf b529 9e3e
000002a0: 6294 023f 3a4f d7bd 4e89 16be 4926 893e
000002b0: a67d 683e 6645 59bf da59 8f3d 13aa bc3d
000002c0: 9d77 273d aa1b fbbe c54b d43c 49b4 853e
000002d0: d854 2e3c 4481 e83e 82e0 cb3e f51f 8c3c
000002e0: 8672 59bd 57f4 1c3f f67c 713e f3dc 30be
000002f0: 0198 afbd aef6 35bf 3d7a 953e 47bf b13e
00000300: 6a95 0c3c 76f6 c23e ed81 dd3e d668 043f
00000310: ecf7 4f3f c42f 9f3e 01d8 583f 105c d03e
0.2750407 0.047799602 -0.4381582 0.5545229 0.24317499 -0.04878027 0.48810005 0.14157617
0.5432212 0.74144083 0.06314444 1.1665295 0.8067549 0.71858776 -0.0028794066 0.94847625
-0.21447296 -0.049720556 -0.2620525 0.17082793 0.86277306 0.8542264 0.44845852 -0.15169509
0.52547663 0.121713966 -0.03004136 -0.34714815 0.7541922 0.017522296 -0.5353142 -0.10798732
-0.009575448 -0.045905557 -0.14770159 0.28411666 0.7865741 -0.49041232 -0.4984975 -0.32177058
-0.18300563 0.3173903 0.39542502 0.24421383 -0.26910692 0.4801545 -0.021776324 -0.29109183
-0.23660737 0.058917813 0.42099947 0.798448 -0.39901382 0.023536276 0.4390828 0.6674688
0.6160823 -0.5812232 0.059712455 -0.22722344 -0.36591727 -0.42090377 0.24930833 -0.11654356
-0.5682387 0.066744655 0.31187433 0.32348454 -0.34340727 0.2572127 0.63791454 -0.29628894
-0.30401418 0.48479488 0.30301923 -0.13026877 -0.07165268 1.1337295 -0.8389767 -0.31873778
-0.32611543 -0.4626379 0.27191937 0.8613062 0.76007336 0.2997995 0.37525684 0.17005695
-0.07509854 0.50413734 0.35760218 0.14525853 -0.19816461 0.55589324 -0.07325952 0.11176043
-0.10978186 0.046129923 -0.09014327 -0.033345982 0.032487888 -0.024282193 0.65518516 0.34835193
-0.48834795 0.41269878 -0.28991377 0.62114495 -0.1094246 -0.2561823 -0.23091969 0.2939732
0.3579215 -0.44366273 0.60279405 -0.17111868 -0.30489853 0.23663682 0.4835417 0.659451
0.18587025 -0.13247591 0.51799774 -0.4381187 0.22750214 0.6232449 -0.29939044 0.3088318
0.050103575 0.10422593 0.1163498 -0.12798686 -0.3182218 -0.44348517 0.45993248 -0.32223514
0.7354384 0.25826874 -0.10486012 0.14485058 0.4809117 -0.8374747 0.1416384 -0.47980458
-0.31039366 -0.8110727 -0.033836327 0.14800395 0.5687414 -0.013566233 0.64162606 0.5230188
0.66744924 -0.05887553 -0.39712563 -0.45095336 -0.30560324 -0.28688073 -0.45265496 0.17826939
0.33377275 -0.2506505 0.19189006 0.7423228 0.12951928 0.34145758 -0.65492755 0.30891195
0.51007664 -0.10513158 -0.14700815 0.26787022 0.22704181 -0.8487152 0.0699956 0.092121266
0.040885556 -0.49044544 0.025915036 0.2611411 0.0106403455 0.45411122 0.39819723 0.017105082
-0.053087734 0.61310333 0.23582825 -0.17271785 -0.08573914 -0.7107953 0.29194823 0.34716246
0.008580545 0.3807866 0.43263188 0.51722467 0.81237674 0.3109113 0.84704596 0.40695238

sequential/dense_2/MatMul f4 [8, 10]
00000000: 95cd e03e 7e1f 543f dbe1 e8be 6d11 78bf
00000010: 1641 e1be 98d9 23bf 5ffc b5bf a2df 32bf
00000020: 00af 0cbf 2818 38bf d21d 17bf a92b fabe
00000030: 1aba 73bf d209 513e 5d47 80bf 8183 7c3f
00000040: e972 1d3f 3189 28bf d493 b4be 3a98 fabb
00000050: e7cc 7fbf aa97 6f3f 83cc 1dbf bd9e 0bbf
00000060: 1159 b43c 250b ddbe a258 1b3f ee28 5ebf
00000070: fbf0 003f 32e6 71bd 5030 07bf d05b f03d
00000080: 813e a33e a09b abbe 8fae 07bf e8db 4b3e
00000090: 29dc bfbd 77e2 583f b0fb 2c3f cefe 5cbf
000000a0: 466d 1abf 9064 15be 47bd 6d3f 6138 04be
000000b0: 0f66 86be 4499 ed3d c799 9a3e 09f4 22bf
000000c0: be88 83bf ae2f a23e 88e4 b63e 314e d53d
000000d0: 8776 793e 9ea0 a6bc c260 65be f34a 55bf
000000e0: 1d0e 3fbf 2f6d c03e cbb3 d3be c470 e7be
000000f0: c641 bf3d 8c74 00bf 0538 273e a439 b5be
00000100: ed2f 203f ffc8 933e d1c1 adbe 87ea 2fbf
00000110: d06c 3e3f 3c8d d6bd 42e8 6ebe 59fb 22bf
00000120: ad6f ffbe 2e24 363f e503 b73e a598 46bf
00000130: ed71 bd3e fca8 13bf 70e3 25bf ccfe b4be
0.43906847 0.82860553 -0.45484814 -0.9690159 -0.4399497 -0.64003897 -1.4217643 -0.69872487
-0.5495453 -0.7191186 -0.5902988 -0.48861435 -0.95205843 0.20413902 -1.0021778 0.9863816
0.61503464 -0.6583434 -0.35269034 -0.0076475414 -0.9992203 0.93590796 -0.61640185 -0.5453909
0.022015126 -0.43172565 0.6068212 -0.86781204 0.50367707 -0.059057422 -0.52808094 0.11736262
0.31883624 -0.3351717 -0.5300073 0.19908106 -0.09368164 0.8472056 0.67571545 -0.863263
-0.6032299 -0.14589143 0.9286694 -0.12912132 -0.2624974 0.11601499 0.30195448 -0.6365362
-1.0276105 0.31677002 0.3572123 0.104153045 0.24361621 -0.02034026 -0.22400191 -0.8331749
-0.7463091 0.375833 -0.4134811 -0.4520322 0.09338717 -0.50177836 0.16329964 -0.3539554
0.6257313 0.28864285 -0.33936933 -0.68717235 0.74384785 -0.10476157 -0.23330787 -0.63664776
-0.4988989 0.71148956 0.3574516 -0.7757667 0.3700098 -0.57679725 -0.6480017 -0.35350645
